alarm_classifier.lite (tflite, 8420 bytes, 6 tensors)

sequential/conv1d/BiasAdd/ReadVariableOp f4 [8]
0	0xbf30d833	-0.69079894
1	0xbed2457b	-0.41068634
2	0xbf2c915b	-0.67409295
3	0xbf10230d	-0.56303483
4	0xbf0f2900	-0.55921936
5	0xbf28e456	-0.65973413
6	0xbf149412	-0.5803844
7	0xbefcd374	-0.49380076

sequential/conv1d_1/BiasAdd/ReadVariableOp f4 [16]
0	0xbe7f6aa3	-0.24943022
1	0xbe701d59	-0.23448695
2	0xbe0bcfc4	-0.13653475
3	0xbf134e8f	-0.57541746
4	0xbe8fe0d4	-0.28101218
5	0xbe69abe1	-0.22819473
6	0xbded1b3b	-0.115774594
7	0xbe766b92	-0.24064472
8	0xbe9f6f49	-0.3113959
9	0xbe7d80b1	-0.24756123
10	0xbe8fb45e	-0.28067297
11	0xbe96747e	-0.2938575
12	0xbe1fd1a0	-0.1560731
13	0x3e816c4b	0.25277933
14	0xbd26a7ab	-0.040687244
15	0x3e30c0b1	0.17261006

sequential/conv1d/Conv1D f4 [8, 1, 3, 13]
0	0x3f332f8f	0.69994444
1	0x3f21e9a9	0.6324716
2	0x3e277171	0.16351868
3	0xbeb4e383	-0.35329828
4	0x3efa9c45	0.4894735
5	0x3e12134e	0.14265177
6	0xbdb11766	-0.08647041
7	0xbe2e6ee7	-0.17034493
8	0x3ef5103a	0.47863942
9	0x3e515805	0.20443733
10	0xbe20d04a	-0.15704456
11	0xbf0aa3ee	-0.54156387
12	0x3ee47f93	0.4462858
13	0xbe603381	-0.21894647
14	0xbef23307	-0.47304556
15	0x3e9e3984	0.30903256
16	0x3e24604d	0.16052361
17	0xbdf20f5f	-0.11819338
18	0x3e06fd1c	0.13182491
19	0x3e83798e	0.25678676
20	0xbe87c594	-0.26517928
21	0x3d3edb7b	0.04659603
22	0xbccae97a	-0.024769533
23	0xbde0c55d	-0.10975144
24	0x3dcecd00	0.100976944
25	0x3cba80c0	0.02276647
26	0xbd51b835	-0.051201064
27	0x3e7ee66f	0.24892591
28	0xbe1e8b06	-0.1548272
29	0x3dd0bd13	0.10192313
30	0x3e9995df	0.29997155
31	0xbdac9d42	-0.08428432
32	0x3e391843	0.18075661
33	0xbdbaf5c5	-0.09128908
34	0x3e356238	0.17713249
35	0x3e246ead	0.16057844
36	0xbe11cb23	-0.14237647
37	0xbefdbb63	-0.49557027
38	0x3f1355f7	0.57553047
39	0xbe371e52	-0.1788266
40	0xbf1b17f6	-0.60583436
41	0xbef57fa2	-0.4794894
42	0x3de80529	0.11329109
43	0xbed92945	-0.424143
44	0x3d815f41	0.06316996
45	0x3e0cd17b	0.13751785
46	0x3ecc6acf	0.39925238
47	0xbe471ba1	-0.19444133
48	0xbdc87fef	-0.097900264
49	0x3e6940ab	0.22778575
50	0x3ec89bd2	0.3918138
51	0xbd360190	-0.044435084
52	0xbd5ce26a	-0.053926863
53	0x3de5bf4f	0.1121813
54	0xbee8979f	-0.45428178
55	0xbe06b4ac	-0.13154858
56	0xbe30c46c	-0.17262429
57	0xbd260731	-0.040534202
58	0x3d5fbeae	0.054625206
59	0x3e81b3c5	0.25332466
60	0xbec28c64	-0.37997735
61	0xbe53a732	-0.20669249
62	0x3ea280c8	0.31738877
63	0x3eea2f7f	0.45739362
64	0xbe6049e9	-0.21903194
65	0xbf076f31	-0.5290404
66	0xbe9dea1f	-0.30842683
67	0xbe437801	-0.19088747
68	0x3eb1a17b	0.34693512
69	0x3ddc2dcb	0.10750922
70	0xbf09142d	-0.5354641
71	0xbe117b60	-0.1420722
72	0x3ddce666	0.107861325
73	0xbeb23529	-0.34806183
74	0x3ec26c21	0.3797312
75	0x3d891d36	0.06695025
76	0x3e441660	0.1914916
77	0xbdc3997d	-0.0955076
78	0x3e633884	0.22189528
79	0x3e5aae21	0.21355487
80	0x3e82e926	0.25568503
81	0x3e28e02a	0.16491762
82	0x3e57012a	0.20996538
83	0xbec581a8	-0.38575482
84	0xbe84dde4	-0.2595054
85	0xbe930bc2	-0.28719908
86	0x3ec628dd	0.3870305
87	0x3e87fa6f	0.26558253
88	0xbe66d993	-0.22543935
89	0xbe8bb895	-0.27289262
90	0x3d3b8f8a	0.045791186
91	0xbee9d124	-0.45667374
92	0xbdb16c10	-0.086631894
93	0x3ebf2243	0.37330827
94	0x3e38f229	0.18061127
95	0xbd031f80	-0.032012463
96	0xbe498f3b	-0.19683544
97	0x3dda4193	0.106570385
98	0xbe96788f	-0.29388854
99	0x3d0a8b35	0.033824164
100	0x3e25bc84	0.16185194
101	0xbebc9581	-0.36832812
102	0x3e28cb37	0.1648377
103	0xbd49f9e3	-0.049310576
104	0x3ef23817	0.47308418
105	0x3e871fbc	0.263914
106	0xbed1d10c	-0.40979803
107	0xbb41b350	-0.0029556341
108	0x3eb60bfb	0.35556015
109	0x3e49e866	0.19717559
110	0xbe7c1a46	-0.24619398
111	0xbe9ac326	-0.3022701
112	0x3ec72b77	0.3890035
113	0x3e170447	0.14747725
114	0xbe46f62d	-0.19429846
115	0xbf0815e3	-0.53158396
116	0x3d62dc5b	0.05538593
117	0xbe8c6f81	-0.2742882
118	0x3d297a04	0.04137613
119	0x3eb697c5	0.35662666
120	0xbf50010a	-0.81251585
121	0x3f3607ac	0.71105456
122	0xbf2888b0	-0.6583357
123	0x3f201e59	0.62546307
124	0x3dc8e0c9	0.09808499
125	0x3e1086d6	0.14113936
126	0x3d80254a	0.06257112
127	0x3d5da489	0.05411199
128	0xbef01ab4	-0.46895373
129	0x3e5d404e	0.21606562
130	0x3ea55e48	0.32298493
131	0x3e03dc75	0.12877066
132	0xbe224de1	-0.15850021
133	0x3e4fd685	0.20296676
134	0xbeeb64a8	-0.45975232
135	0x3ef71ad0	0.48262644
136	0x3da9a57b	0.08283516
137	0x3ea1cfb5	0.3160378
138	0x3e824c19	0.25448683
139	0x3ed5ef0c	0.4178394
140	0x3df6ebd6	0.12056701
141	0x3d5913b0	0.05299729
142	0xbdfe32d0	-0.124120355
143	0x3ec5fe3d	0.3867053
144	0xbea18828	-0.3154919
145	0x3ebb7a1f	0.36616609
146	0x3eaa6ba6	0.33285254
147	0xbdd19ecd	-0.10235367
148	0x3e9cb1f6	0.30604523
149	0x3eaf9319	0.34291914
150	0x3e6eb601	0.23311616
151	0x3dc10aab	0.09425863
152	0xbc0ee543	-0.008721652
153	0xbe4bdb6f	-0.19907926
154	0x3eb496ed	0.35271397
155	0xbe3df3dd	-0.18550058
156	0x3f59a5f1	0.8501883
157	0xbf024098	-0.5087981
158	0xbe3432ce	-0.17597505
159	0x3f1966cd	0.59922487
160	0xbebb53bd	-0.36587325
161	0xbe47c91c	-0.19510311
162	0xbed8e81f	-0.42364594
163	0x3ec1dd0d	0.3786396
164	0x3db884d5	0.09009711
165	0xbeb41539	-0.35172442
166	0xbe830a58	-0.2559383
167	0x3efcfb1c	0.4941033
168	0x3e25cb85	0.16190918
169	0x3f0e5e81	0.5561295
170	0xbe4bb05b	-0.19891493
171	0x3e7e189f	0.2481408
172	0x3e7c8cca	0.24663082
173	0x3d913a86	0.070912406
174	0xbe841db1	-0.25803903
175	0xbc98f772	-0.018672679
176	0x3e7d04b4	0.24708825
177	0x3ac1d230	0.0014787372
178	0xbe84d2bb	-0.25942025
179	0x3cd1943b	0.025583377
180	0xbe8a029f	-0.26955125
181	0x3e8289c3	0.2549573
182	0x3f020384	0.50786614
183	0xbe6c6b98	-0.23087919
184	0xbe452b17	-0.19254719
185	0x3e82f930	0.2558074
186	0xbed5d6d1	-0.41765454
187	0xbc99de76	-0.018782835
188	0x3d8e8866	0.0695961
189	0x3c82c52f	0.015963165
190	0x3ea17775	0.3153645
191	0xbee3a147	-0.44458982
192	0xbeb45bd7	-0.35226318
193	0x3e455aeb	0.19272964
194	0xbdba2f7c	-0.09091088
195	0xbe00741e	-0.12544295
196	0xbc743ce0	-0.014907092
197	0xbe3472bc	-0.17621893
198	0x3dacfbb7	0.08446448
199	0x3e9435e8	0.28947377
200	0x3e46374c	0.19357032
201	0xbe64ddac	-0.22350186
202	0x3e82d975	0.25556532
203	0xbe99f3ff	-0.30068967
204	0x3ea99354	0.33120215
205	0x3e020fa1	0.12701274
206	0x3e7cc4dd	0.24684472
207	0x3ec085b2	0.37602
208	0xbdcba06f	-0.0994271
209	0xbd63d653	-0.055624317
210	0x3b83e14d	0.0040246607
211	0xbebd7682	-0.37004477
212	0x3eef0657	0.46684524
213	0x3e0657a4	0.1311937
214	0x3eee6eab	0.46568808
215	0x3d860aa1	0.06544996
216	0x3d38c42f	0.04510897
217	0x3ef2551a	0.47330552
218	0xbdc4c793	-0.09608378
219	0x3ec3a4c1	0.38211635
220	0xbf267bcb	-0.65032643
221	0x3cc991c5	0.024605641
222	0xbc5bb6b2	-0.013410257
223	0xbe5aa7d2	-0.21353081
224	0x3f58c3b3	0.84673613
225	0xbee92910	-0.4553914
226	0x3f5321fe	0.8247374
227	0xbeccc0c1	-0.3999081
228	0x3d2e423c	0.042543635
229	0x3cebfc98	0.02880697
230	0xbdb5767f	-0.08860492
231	0x3d745a58	0.05965647
232	0x3e798a8d	0.24369259
233	0x3d6a5386	0.05720856
234	0x3ee7a50b	0.45243105
235	0xbd67fdfa	-0.056638695
236	0xbebebc3d	-0.3725299
237	0x3ecb1ab5	0.39668813
238	0xbe860333	-0.26174316
239	0x3eeef59f	0.4667177
240	0x3d740cc1	0.059582476
241	0xbe828c73	-0.2549778
242	0xbeda1e25	-0.42601123
243	0x3d36136b	0.044452112
244	0xbe0c6b83	-0.13712887
245	0x3ed19b4c	0.40938795
246	0xbebbf28a	-0.3670848
247	0xbea5b210	-0.32362413
248	0xbd338fec	-0.043838426
249	0x3e759a3b	0.23984616
250	0x3b963d94	0.0045849774
251	0x3f176f50	0.59154224
252	0x3d9ffefc	0.07812306
253	0x3e4981d9	0.19678439
254	0xbdb46d60	-0.08809924
255	0xbe9684fe	-0.2939834

sequential/conv1d_1/Conv1D f4 [16, 1, 3, 8]
0	0xbe23b0ab	-0.15985362
1	0xbe6b63a6	-0.22987232
2	0xbcfee5cf	-0.03111544
3	0x3e781317	0.24226032
4	0xbe109974	-0.14121038
5	0xbe45fe84	-0.19335371
6	0xbdf4a028	-0.1194461
7	0x3e594811	0.21218897
8	0xbe54ea5d	-0.20792527
9	0xbdf7e3d8	-0.121040046
10	0xbe6619b9	-0.2247075
11	0x3e5ff6db	0.21871512
12	0x3e47e546	0.19521055
13	0x3eaa6bb2	0.3328529
14	0x3e80a44b	0.25125346
15	0xbf1026ad	-0.56309015
16	0xbea8fee9	-0.3300698
17	0xbd2c8b30	-0.042124927
18	0xbd3d607a	-0.046234585
19	0x3df284f6	0.118417665
20	0xbe279f21	-0.16369297
21	0xbe8f437f	-0.27981183
22	0x3edce253	0.43141422
23	0x3e426543	0.18983941
24	0xbe62ebe4	-0.22160298
25	0x3dc14554	0.094370514
26	0xbe8a7556	-0.27042645
27	0x3e0c0d99	0.13677062
28	0x3eca14cd	0.39468995
29	0xbec15552	-0.37760407
30	0xbeb9389a	-0.36175996
31	0x3e5148c0	0.20437908
32	0x3d9d69a6	0.076861665
33	0xbdb0c7df	-0.086318724
34	0xbe741148	-0.23834717
35	0xbe18a461	-0.14906456
36	0x3d66a07e	0.0563054
37	0x3ec8bc39	0.39206102
38	0x3d304ab5	0.043039996
39	0x3eacfe22	0.33787638
40	0xbd92f774	-0.07176104
41	0xbe1ae340	-0.15125751
42	0xbe22e727	-0.1590849
43	0xbf0e4ed9	-0.5558906
44	0xbf0569b8	-0.5211444
45	0xbe8284ca	-0.25491935
46	0xbce0f0f5	-0.027458647
47	0x3da97ccd	0.08275757
48	0xbe67f7a9	-0.22653069
49	0xbe480789	-0.19534124
50	0xbe0d3436	-0.13789448
51	0x3e49151b	0.19636957
52	0xbe7eae44	-0.24871165
53	0xbeafdfd1	-0.34350446
54	0x3e164c35	0.14677508
55	0x3e547571	0.20747925
56	0x3b0fba84	0.002193124
57	0xbd0f699e	-0.035012834
58	0xbde8437c	-0.113409966
59	0x3ec4ff96	0.38476247
60	0x3f0516ce	0.5198792
61	0xbedc6c3a	-0.4305132
62	0xbe249d57	-0.16075645
63	0x3e6cdb17	0.23130451
64	0xbe743f6a	-0.23852316
65	0xbdd82a83	-0.105549835
66	0xbe142449	-0.14466967
67	0xbee65b68	-0.44991612
68	0xbd80cb5e	-0.06288789
69	0x3ca11ce0	0.019667089
70	0x3ea4fa5f	0.32222268
71	0xbe9d28cd	-0.3069519
72	0xbd98784c	-0.0744482
73	0xbe960697	-0.29301903
74	0xbe8e2e5a	-0.27769738
75	0xbe531e03	-0.20616917
76	0x3f1bca43	0.608555
77	0x3e2fb35b	0.17158262
78	0xbe82f418	-0.25576854
79	0x3e7182c6	0.23585042
80	0xbe8a292a	-0.2698453
81	0xbe2fc4ac	-0.17164868
82	0xbed3f04e	-0.41394275
83	0x3e5325fd	0.2061996
84	0x3af42342	0.001862623
85	0x3e4d3d4b	0.20042913
86	0xbe1a4250	-0.15064359
87	0x3e620c53	0.22075014
88	0xbe80fd31	-0.2519317
89	0xbe17956b	-0.14803092
90	0xbecafdb0	-0.39646673
91	0x3dc91da8	0.098201096
92	0x3eb581f3	0.35450706
93	0xbe3e991a	-0.18613091
94	0x3e33b636	0.17549977
95	0x3e8de518	0.27713847
96	0xbe9f2a72	-0.3108707
97	0xbe3c11cb	-0.18366162
98	0xbe8e1da8	-0.27757
99	0xbedd333f	-0.4320316
100	0x3e08074d	0.13284035
101	0xbdd47a78	-0.103749216
102	0x3e8dfa7a	0.2773016
103	0x3ebd7bc1	0.3700848
104	0xbe474014	-0.19458038
105	0xbe97f175	-0.29676405
106	0xbe0ceefa	-0.13763037
107	0x3d21a813	0.03946693
108	0x3c7190ef	0.0147440275
109	0x3e2cda77	0.16880213
110	0x3eaf9202	0.34291083
111	0x3f1472e5	0.57987815
112	0x3cc7554c	0.024332665
113	0xbe47e919	-0.19522513
114	0x3bcf82e2	0.006332741
115	0x3cc7a9e8	0.02437301
116	0xbee2e8ec	-0.4431833
117	0x3e9e3fe4	0.3090812
118	0xbdb02b80	-0.08602047
119	0x3f01dc78	0.50727034
120	0xbec5fe79	-0.3867071
121	0x3d3446aa	0.044012703
122	0xbc815edd	-0.015792305
123	0x3e346fab	0.17620723
124	0xbe581b3b	-0.21104138
125	0xbe782fc6	-0.24236974
126	0xbeaf3a90	-0.34224367
127	0x3ec528eb	0.3850778
128	0xbee753a1	-0.4518099
129	0xbd885c14	-0.066581875
130	0xbe8a2eb4	-0.26988757
131	0xbe264e13	-0.1624072
132	0x3e040f24	0.128964
133	0x3e8a9e7e	0.27074045
134	0xbf06accd	-0.52607423
135	0xbe409f34	-0.18810731
136	0xbe8c9143	-0.27454576
137	0x3d5506de	0.052008502
138	0xbe3b8685	-0.18313034
139	0x3e19fdfa	0.1503829
140	0xbe63ff6e	-0.22265407
141	0xbddfe1ab	-0.109317146
142	0xbeda7855	-0.4266993
143	0x3d07f246	0.033190034
144	0xbe1dc7cf	-0.15408252
145	0xbeb79bc1	-0.35861018
146	0xbe5e8e87	-0.21734057
147	0x3e4bb200	0.1989212
148	0x3d18f669	0.03734437
149	0xbe14c120	-0.14526796
150	0x3ed45bd7	0.41476318
151	0x3e3535c0	0.17696285
152	0xbe2fd912	-0.1717265
153	0xbecc153e	-0.39859957
154	0xbd796f52	-0.06089718
155	0xbf29255a	-0.6607262
156	0xbd41bf9a	-0.047301866
157	0x3cd495d8	0.025950357
158	0x3eefeb6b	0.46859297
159	0xbdefc1c0	-0.11706877
160	0xbccbe216	-0.02488808
161	0xbe82a5d6	-0.25517148
162	0x3d3863ef	0.04501718
163	0x3e310a78	0.1728915
164	0x3ec14855	0.37750497
165	0x3e1b1ddb	0.15148108
166	0xbeb64aa3	-0.35603818
167	0xbe94e02e	-0.29077286
168	0xbe14d8f7	-0.1453589
169	0xbe9766be	-0.29570574
170	0xbe690da0	-0.22759104
171	0xbf05ff6e	-0.5234288
172	0xbe15eea7	-0.1464182
173	0x3e8701e5	0.26368633
174	0x3ed0ed9e	0.40806288
175	0xbd996072	-0.074890986
176	0xbe59e329	-0.21278061
177	0xbe21ab84	-0.15788084
178	0x3d1943aa	0.037418045
179	0x3ecd3f69	0.4008744
180	0x3da91871	0.08256615
181	0x3e8bd099	0.27307585
182	0x3e9e57c2	0.3092633
183	0xbe006751	-0.12539412
184	0xbe2dee5b	-0.16985457
185	0xbe82ce3f	-0.25547978
186	0xbe970786	-0.29497927
187	0x3d180cdb	0.037121635
188	0x3ed89fa7	0.42309305
189	0x3daab56c	0.08335385
190	0x3eb7d5c0	0.35905266
191	0xbe5e1b4a	-0.21690097
192	0xbe25aecc	-0.16179961
193	0xbdad5ad1	-0.084645875
194	0xbd9fb3fa	-0.07798
195	0x3ed2b660	0.41154766
196	0x3e937c7b	0.2880591
197	0x3dcc05f6	0.099620745
198	0x3e8a2441	0.26980785
199	0x3ee40eed	0.44542637
200	0xbccdd1e5	-0.0251245
201	0xbedf8573	-0.436565
202	0xbe2a5b2f	-0.16636346
203	0x3ea0142a	0.31265384
204	0x3ef63305	0.480858
205	0x3d93c58c	0.072154135
206	0xbed5a00c	-0.4172367
207	0x3e859dc1	0.2609692
208	0xbe442524	-0.19154793
209	0xbe1d86f7	-0.15383516
210	0xbe495918	-0.19662893
211	0xbdd62f10	-0.10458195
212	0x3ecfd254	0.40590155
213	0x3e9a916c	0.30189073
214	0x3e7188ec	0.23587388
215	0xbe2ca761	-0.16860725
216	0xbe94f661	-0.29094222
217	0xbeab4ce7	-0.3345711
218	0xbe2ba3f5	-0.16761763
219	0x3e1fd720	0.15609407
220	0xbe9ed112	-0.31018883
221	0x3eedd557	0.46451828
222	0x3e836537	0.25663158
223	0x3e18f647	0.14937697
224	0xbec0bb3e	-0.37642854
225	0xbe5509a2	-0.20804456
226	0xbea4d0a0	-0.32190418
227	0xbcaba233	-0.020951366
228	0x3cc515a5	0.024058172
229	0x3eadcfc8	0.33947587
230	0x3e219110	0.15777993
231	0x3d265d38	0.040616244
232	0xbe88f739	-0.26751116
233	0xbe71a674	-0.23598653
234	0xbe8c4752	-0.27398163
235	0x3f03527a	0.51297724
236	0xbe02ecc1	-0.12785627
237	0x3e9b1771	0.30291322
238	0x3d6d8540	0.057988405
239	0x3eda6c60	0.4266081
240	0xbe8fef05	-0.28112045
241	0xbefab3c4	-0.48965275
242	0xbe3c9ad4	-0.18418437
243	0x3bc22096	0.0059242947
244	0xbd3d1e8d	-0.046171714
245	0x3ebed26f	0.37269923
246	0x3f296245	0.6616557
247	0x3d74e998	0.059793085
248	0xbe2a49e6	-0.16629753
249	0xbedc1e96	-0.42992085
250	0xbe0935cf	-0.13399433
251	0x3eac1005	0.33605972
252	0x3d508b80	0.050914288
253	0x3dede1df	0.11615347
254	0xbe62b176	-0.22138008
255	0xbd596cfd	-0.053082455

sequential/y_pred/BiasAdd/ReadVariableOp f4 [2]
0	0x3e8cda4e	0.27510303
1	0xbe8cda86	-0.2751047

sequential/y_pred/MatMul f4 [2, 208]
0	0xbdf1ff93	-0.11816325
1	0x3d106076	0.035248242
2	0xbb573f62	-0.0032844176
3	0x3bd6be07	0.0065534147
4	0x3e43ae90	0.19109559
5	0xbdb02175	-0.086001314
6	0xbe730406	-0.23732004
7	0xbea31bc8	-0.31857133
8	0xbe1e22df	-0.1544299
9	0xbdf916aa	-0.12162526
10	0xbf222bf5	-0.63348323
11	0xbe8a74c3	-0.27042207
12	0xbe78f3df	-0.2431178
13	0x3f3386bd	0.7012747
14	0xbdd6f00a	-0.104950026
15	0x3ebfa171	0.37427858
16	0x3d94358c	0.07236776
17	0x3c69a2ee	0.014260037
18	0xbdbabd8f	-0.09118187
19	0xbea1083e	-0.314516
20	0xbd36ab43	-0.04459692
21	0xbc4bf3d5	-0.012448271
22	0xbea078a1	-0.31342033
23	0xbe181b3f	-0.14854144
24	0xbe70e96c	-0.23526543
25	0xbe29bd7c	-0.16576189
26	0xbd953e76	-0.07287304
27	0xbeb5690d	-0.3543171
28	0xbdcb05f1	-0.099132426
29	0x3e6bf434	0.23042375
30	0xbdcb92b7	-0.09940093
31	0x3ec55fac	0.38549554
32	0xbd30d0d9	-0.043167923
33	0xbdbf14d6	-0.09330146
34	0x3e6a23ac	0.2286517
35	0xbec46708	-0.38359857
36	0xbea1d08e	-0.31604427
37	0xbece9559	-0.40348318
38	0xbe104943	-0.14090447
39	0x3d852efa	0.06503101
40	0xbc64f143	-0.013973537
41	0x3cb6b4b5	0.022302965
42	0xbeb0a2eb	-0.34499297
43	0xbe1a537b	-0.15070908
44	0xbe47b42c	-0.19502324
45	0x3edd13ba	0.43179113
46	0x3e160e7d	0.14653964
47	0x3dbb4a63	0.091450475
48	0xbb8a5158	-0.0042211227
49	0xbebc6e02	-0.3680268
50	0xbe12d8dd	-0.1434054
51	0xbeabb06d	-0.3353304
52	0xbda6fe3f	-0.08153962
53	0xbdb4f8c2	-0.08836509
54	0x3d91a939	0.07112355
55	0xbd058aee	-0.032603197
56	0xbed1f3d6	-0.41006345
57	0xbe15f7ff	-0.14645384
58	0xbdf04e0a	-0.11733635
59	0xbecd79e3	-0.40132055
60	0xbcb4207c	-0.021988146
61	0x3e9b8046	0.30371302
62	0xbe0e17b4	-0.1387623
63	0x3e0e2088	0.13879597
64	0xbce96481	-0.028490307
65	0xbd77fa83	-0.06054164
66	0x3cc5392f	0.024075119
67	0x3d2b1faa	0.041778244
68	0xbefbbda1	-0.49168113
69	0x3e145c26	0.14488277
70	0xbe1684dd	-0.14699121
71	0xbe2647a9	-0.16238274
72	0xbe1ed871	-0.15512253
73	0xbe582a34	-0.21109849
74	0xbe611d2e	-0.21983787
75	0xbf06c13a	-0.5263859
76	0xbda70093	-0.081544064
77	0x3eae8ead	0.34093228
78	0xbd22d0de	-0.039749973
79	0x3e50eabe	0.20402047
80	0xbe05c774	-0.13064367
81	0xbdb00ff1	-0.085967906
82	0xbe5ae2aa	-0.21375528
83	0x3e3d5bbc	0.18492025
84	0x3debb3c0	0.11508894
85	0xbd9ea1fc	-0.0774574
86	0xbe29f4e2	-0.16597322
87	0xbdad73db	-0.08469363
88	0xbdbe2a79	-0.09285445
89	0xbe6138be	-0.21994302
90	0xbe0b1d98	-0.13585508
91	0xbd083087	-0.033249404
92	0x3c1150d8	0.008869372
93	0x3e96320a	0.29335052
94	0xbe2dc23a	-0.16968623
95	0x3e86adc0	0.26304436
96	0xbd389107	-0.045060184
97	0x3ddfc2ab	0.10925802
98	0x3e887fce	0.26660007
99	0xbd89680a	-0.06709297
100	0xbe4ec0fd	-0.20190807
101	0x3d06794c	0.03283052
102	0x3d8429f9	0.06453318
103	0xbdbff6e3	-0.09373262
104	0x3cc7b8ea	0.024380166
105	0xbd3526f9	-0.04422662
106	0xbf0a5bbb	-0.5404622
107	0x3e891d72	0.26780277
108	0xbe4a6a8f	-0.19767211
109	0x3e9c80d6	0.30567044
110	0x3d0ccd64	0.034375563
111	0x3dae1301	0.084997185
112	0xbe8d7b1e	-0.27632993
113	0x3e176775	0.1478556
114	0xbe50a102	-0.2037392
115	0xbe6bd6e4	-0.23031193
116	0xba1b1362	-0.0005915669
117	0x3e8d96f6	0.27654237
118	0xbe7477da	-0.23873845
119	0xbe8fc252	-0.28077942
120	0xbe7544be	-0.23952004
121	0xbe48eb96	-0.19621119
122	0xbeacf963	-0.33784017
123	0xbe2dc361	-0.16969062
124	0x3e1b4549	0.15163149
125	0x3e84e72b	0.25957617
126	0x3d3d8d89	0.046277557
127	0x3e28497b	0.1643428
128	0x3d9a844c	0.07544765
129	0xbdb07568	-0.086161435
130	0xbdd61889	-0.104538985
131	0xbc9940e7	-0.018707706
132	0xbe86e618	-0.26347423
133	0x3c091c9b	0.0083686365
134	0xbd751abe	-0.059839956
135	0xbe0173ea	-0.12641874
136	0xbeddc5b5	-0.433149
137	0xbd4ef67a	-0.050528027
138	0xbec1bf8c	-0.3784145
139	0xbdb4d408	-0.08829504
140	0x3e04fa8d	0.12986203
141	0x3ee3e0c2	0.44507414
142	0x3e3b68f1	0.1830175
143	0x3ec9499d	0.39313975
144	0x3cf5384b	0.02993407
145	0xbe485534	-0.19563752
146	0xbc54625c	-0.012962904
147	0xbe2255a4	-0.15852982
148	0x3c8fc337	0.01754914
149	0x3c2a4a12	0.010393636
150	0x3d63631a	0.055514432
151	0x3da53aa1	0.08067823
152	0xbe357f8d	-0.17724438
153	0xbe6cc760	-0.2312293
154	0x3d61dbca	0.055141248
155	0xbe9e0629	-0.30864075
156	0x3d721354	0.059100464
157	0x3e8287a4	0.2549411
158	0x3d34d360	0.044146895
159	0x3d4f2f61	0.050582293
160	0xbe7dc50f	-0.24782203
161	0xbe0ed227	-0.13947354
162	0xbd40c275	-0.04706045
163	0xbebd1c92	-0.3693586
164	0xbe92ca83	-0.2867013
165	0xbe35668b	-0.17714898
166	0x3d3b656a	0.045751013
167	0x3de02270	0.109440684
168	0xbbe49263	-0.0069754585
169	0xbe7c45ca	-0.24635997
170	0xbd9e2b56	-0.077231094
171	0xbddcb08e	-0.10775863
172	0x3dc761e5	0.09735469
173	0x3e415422	0.1887975
174	0xbcf1a7c6	-0.029498946
175	0x3eae9b3c	0.3410281
176	0x3d5f45ff	0.054510113
177	0xbe4d392c	-0.2004134
178	0x3e513735	0.20431216
179	0x3dec7e34	0.11547509
180	0x3da71328	0.08157951
181	0xbb448093	-0.0029983863
182	0xbca61a1c	-0.020276122
183	0x3d85bc6d	0.0653008
184	0x3c2a7fb6	0.010406425
185	0xbea98e92	-0.33116585
186	0xbe533c4b	-0.20628469
187	0xbe8a0304	-0.26955426
188	0xbe4f45e2	-0.20241502
189	0x3e393514	0.18086654
190	0xbe1a4707	-0.15066157
191	0x3cf31b0b	0.029675981
192	0x3db35f30	0.0875839
193	0xbd3cc09b	-0.04608212
194	0xbe6113eb	-0.21980254
195	0x3df094e0	0.11747146
196	0xbe9726f5	-0.2952191
197	0xbd97c018	-0.07409686
198	0xbe87017c	-0.2636832
199	0xbde11b8d	-0.10991583
200	0xbe201152	-0.15631607
201	0xbe456ecf	-0.19280551
202	0xbe1cbadb	-0.15305655
203	0xbdf0c66d	-0.11756597
204	0x3d762477	0.06009337
205	0x3e903d26	0.28171653
206	0xbe4fbd1b	-0.20286982
207	0x3e6dbbb5	0.23216136
208	0x3e9df7ff	0.30853269
209	0xbe1babfd	-0.15202327
210	0x3d8dd8b9	0.06926102
211	0x3dd76ef4	0.105192095
212	0xbe1e5950	-0.15463758
213	0xbca925cd	-0.020647908
214	0x3cb34820	0.021884978
215	0x3e7f9d81	0.24962427
216	0x3d2a65a6	0.041600846
217	0x3e936924	0.28791153
218	0x3ebb61d6	0.3659808
219	0x3d836b95	0.06417004
220	0x3dbec346	0.09314589
221	0xbedb1949	-0.4279273
222	0x3ded60af	0.115907066
223	0xbeab849a	-0.33499604
224	0x3d04f8fb	0.03246401
225	0xbd796dc9	-0.060895715
226	0x3e418879	0.18899716
227	0x3d69ebaa	0.057109512
228	0x3e7fc96f	0.24979185
229	0x3d36101e	0.044448964
230	0x3ead78a4	0.33881104
231	0x3e928f47	0.28624937
232	0x3e8780da	0.26465493
233	0x3c84eec2	0.01622713
234	0x3e436298	0.1908058
235	0x3e914c59	0.2837856
236	0x3e21916d	0.15778132
237	0xbce171a7	-0.027520014
238	0x3d091598	0.03346786
239	0xbdbc1144	-0.09182981
240	0x3dcce0c8	0.10003811
241	0x3e8c93b9	0.27456453
242	0xbdf0fde1	-0.117671736
243	0x3e3e798e	0.18601057
244	0x3e65149e	0.22371146
245	0x3dcd59b9	0.10026879
246	0x3e974279	0.29542902
247	0x3e491d96	0.19640192
248	0xbd68b4a3	-0.056812894
249	0x3e752677	0.23940454
250	0x3e39a98b	0.18131082
251	0x3e09f10a	0.13470855
252	0x3ddb8bbb	0.10720011
253	0xbe84d2bd	-0.2594203
254	0xbe972866	-0.2952301
255	0xbe13a01b	-0.14416544
